CaptureSlave/app/src/main/ml/patch_model.tflite (tflite, 199564 bytes, 14 tensors)

dense/bias f4 [128]
000000 ae e4 db bd 81 1f 69 be c8 ad 79 be 19 d8 b6 3c
       -0.107369766 -0.22765924 -0.24382699 0.02231984
000010 ad ab 84 bd 7f eb 9b 3d 11 38 04 be a5 2c 12 bd
       -0.06478057 0.07613277 -0.12912013 -0.035687108
000020 26 74 fb bd 46 59 03 be 92 19 47 bd c5 1e ff bd
       -0.12278013 -0.12827024 -0.04860837 -0.12457041
000030 41 48 5f 3d bc 95 41 be f9 3a 5e be ab ef 48 3b
       0.054512266 -0.18904775 -0.21702184 0.0030660431
000040 e6 ae 9e bd 54 09 ff ba 9b bb 13 be dc 83 a0 3d
       -0.07748203 -0.0019457736 -0.14427035 0.0783765
000050 6c 20 6f be 99 34 60 bd 66 84 88 bc 58 3e 4b be
       -0.23352212 -0.05473766 -0.016664695 -0.19848001
000060 06 b0 76 bd 42 b7 78 3d bd 50 e7 bd 08 e7 b5 3d
       -0.060226463 0.060721643 -0.112946965 0.08881956
000070 e2 3c 53 bd a9 78 31 be 45 bf 1d bd f1 58 8e be
       -0.051571734 -0.17331184 -0.038512487 -0.27802232
000080 54 53 fd bd 05 cf d9 bc 58 0b 29 bd 1a 3e 8f bd
       -0.12369409 -0.026587972 -0.041270584 -0.06994267
000090 cf ee de 3d ba bc 0e 3e f5 c6 73 be a2 b9 84 3e
       0.10885393 0.13939181 -0.23806365 0.25922877
0000a0 fa 00 36 be 66 94 69 bc df ac e3 bc 15 30 24 3e
       -0.1777381 -0.014256572 -0.027792392 0.16033967
0000b0 58 b4 27 be 0a 67 ad be b2 d8 8f 3d f4 56 f1 3c
       -0.1637739 -0.33867675 0.07023753 0.029460408
0000c0 97 38 f3 3c 46 e2 10 bc b5 cd b1 bd d8 17 a9 be
       0.02969007 -0.00884301 -0.08681814 -0.33026004
0000d0 9d ef 68 3d 44 ea 76 be 22 74 b4 bd 47 c5 5b bd
       0.056869138 -0.24112803 -0.08811213 -0.053654935
0000e0 f0 7e 64 be ee 30 7c be cb f1 4e be c7 8a 00 be
       -0.22314048 -0.2462804 -0.20209424 -0.1255294
0000f0 0c 89 47 be b6 ef 17 3d 99 69 06 3d f1 78 2b bd
       -0.19485873 0.03709384 0.03281555 -0.041863386
000100 63 ab 8a be b0 cd bf bd b8 2f bb bd 7b 8e 6e 3e
       -0.27083883 -0.09365404 -0.09139961 0.2329654
000110 54 62 96 3c 34 0c c5 bd 83 4a ce 3c f8 ce 63 3e
       0.018357433 -0.09621468 0.025182014 0.22246921
000120 40 d2 fe bd 66 f1 1f bd fb 1f 0e 3e 58 c8 64 bd
       -0.12442446 -0.039048575 0.13879387 -0.055855125
000130 51 99 31 bd 5e 1b 04 3d eb d3 04 bd 19 2b 44 3d
       -0.043359105 0.032252662 -0.032428663 0.047892664
000140 96 56 23 be 20 2b 64 3c ea b9 ea bd 83 b8 1e be
       -0.15950999 0.013926297 -0.114612415 -0.15500073
000150 aa 48 da be be 50 7d bd 08 62 24 3d a5 ae fd 3d
       -0.42633563 -0.06184458 0.040132552 0.123868264
000160 02 25 c5 3d 48 12 2f 3e 91 2b 61 bd 71 5c 85 be
       0.09626199 0.17096817 -0.05497319 -0.2604709
000170 16 36 e7 3c 0d d9 ad be 48 1a 30 bd 47 f5 f3 3d
       0.028224032 -0.3395466 -0.042993814 0.11912017
000180 f3 77 4f be 5f 17 1f 3b 78 a2 49 3c 8b 77 1c 3d
       -0.20260601 0.0024275405 0.012306802 0.038199943
000190 c8 ae dd bd 90 12 40 3e d6 95 37 bc ca 19 2c 3d
       -0.108243525 0.18757081 -0.011205157 0.042016782
0001a0 6e 28 91 be 49 f5 94 bc 73 35 99 3d 92 f5 36 3e
       -0.28351158 -0.018183367 0.07480898 0.17867115
0001b0 15 51 41 be 6f a2 53 3e 2a 23 03 be f4 99 a3 bc
       -0.18878587 0.20667432 -0.12806383 -0.019970872
0001c0 68 9d 2f be bb d8 4c be 07 45 ef bd fe cc 5e be
       -0.1714989 -0.20004551 -0.11683088 -0.21757886
0001d0 e2 64 84 bd ee 0a 7b 3e b3 da 35 bd f9 0a a5 bd
       -0.06464554 0.24515888 -0.04439802 -0.080587335
0001e0 48 b1 d1 3c bf df b0 bd 8b b7 94 bd 07 30 6d be
       0.02559723 -0.08636426 -0.072615705 -0.23162852
0001f0 a4 02 02 be 69 75 19 be 41 d4 af 3d 85 98 da bc
       -0.1269632 -0.14986195 0.08585406 -0.026684055

conv2d_1/bias f4 [32]
000000 92 0c 19 3d 34 4c 67 be c8 94 1e be 6a 3d 4e 3e
       0.037365504 -0.22587663 -0.15486443 0.20140615
000010 18 28 71 3e 75 9f 84 3d ac 19 b9 3d 1d b5 78 bd
       0.23550451 0.064757265 0.090381 -0.060719598
000020 40 43 96 be a3 75 39 be 41 b0 35 3d cf 38 be bc
       -0.29348183 -0.18111281 0.044357542 -0.023220448
000030 61 c9 85 be a3 3e 7c 3e f4 29 09 be 3c ef 59 be
       -0.26130202 0.24633269 -0.1339491 -0.21282667
000040 1f fa 6e be 89 9c 76 3e 47 fa b2 3d 7b 6a 18 bf
       -0.23337601 0.24083151 0.08739143 -0.59537476
000050 c9 6b a6 3e 1b 6e 6b 3c 9e 79 a3 3e 15 aa 66 bd
       0.3250411 0.014369513 0.31928724 -0.056314547
000060 e1 4f 2b be 72 0f 6e be 52 f2 d0 be be 69 b1 3e
       -0.1672969 -0.2324808 -0.40809876 0.34650987
000070 42 0f d0 3d ea 53 b5 3d 21 69 d5 3c d7 2c d7 be
       0.1015916 0.08853896 0.026051106 -0.42026398

conv2d/bias f4 [16]
000000 92 6c df 3c e0 bc 88 3d 78 33 36 3d 5d c7 77 3e
       0.02727345 0.0667665 0.04448268 0.24197145
000010 29 32 55 3d 00 00 00 00 86 6d e2 3d 3b 0f 5c 3d
       0.05204979 0.0 0.11056046 0.053725462
000020 5e 97 99 3d a9 62 94 3d ff f5 19 3d 9a e7 89 ba
       0.07499574 0.072453804 0.037588116 -0.0010521293
000030 20 cd 33 3e 62 5e 4b 3c 8e d7 0b 3d 4f 01 67 3c
       0.17558718 0.012412639 0.034141116 0.014099433

sequential/batch_normalization/FusedBatchNormV3_1 f4 [16]
000000 e6 b6 e1 41 8d b8 c2 41 ef c1 99 40 96 ff 0a 41
       28.214306 24.340113 4.8049235 8.687399
000010 0c 2e d7 41 72 fb fc 41 14 43 88 41 90 55 6a 41
       26.897484 31.622776 17.032753 14.645889
000020 2b 16 8d 40 89 3c 78 41 a3 9b 67 41 bb 90 7b 41
       4.408956 15.514779 14.475497 15.722835
000030 a0 6c a3 40 37 6a 8f 41 0b e0 42 41 67 f9 c6 41
       5.10701 17.926863 12.179698 24.871778

sequential/batch_normalization/FusedBatchNormV3_11 f4 [16]
000000 f9 f5 cd be 88 49 c2 bf 03 d8 3f bf 80 55 17 c0
       -0.40226725 -1.517869 -0.7493898 -2.3645935
000010 a8 8e 79 bf cb a1 ef be 1a ab db bf 53 2b 84 bf
       -0.974833 -0.46803126 -1.7161591 -1.0325722
000020 2e 90 5a bf a8 bc 8c bf b0 05 51 bf 16 64 93 be
       -0.8537625 -1.0995073 -0.81649303 -0.28787297
000030 20 b9 ad bf a8 63 aa be 7a 8c 62 bf 5f 5e d2 be
       -1.3572121 -0.33279157 -0.884956 -0.41087624

sequential/batch_normalization_1/FusedBatchNormV3_1 f4 [32]
000000 fd b0 ae 3f 9e 7f a7 3f 63 ed 25 40 15 a0 23 3f
       1.3647763 1.3085821 2.592614 0.6391614
000010 0b b9 75 3f 25 96 a6 3f 34 0d a0 3f 63 d3 d9 3f
       0.9598548 1.301457 1.2504029 1.7017635
000020 4d 9e 8b 3f 6e a4 85 3f 64 06 a8 3f 92 aa 66 3f
       1.0907685 1.0440805 1.312695 0.9010402
000030 2e 30 6f 3f 42 77 77 3f e0 ee 18 3f be b5 88 3f
       0.9343289 0.9666635 0.59739494 1.0680463
000040 b6 42 79 3f 49 00 7b 3f b6 b7 ad 3f b8 0d b4 3f
       0.9736742 0.9804731 1.3571689 1.4066687
000050 c8 30 81 3f 5b 8b 97 3f 54 7c 84 3f f4 28 ea 3f
       1.0093012 1.1839403 1.0350442 1.8293748
000060 60 91 c6 3f 3f d5 1d 3f 1b da 99 3f 71 73 52 3f
       1.5513115 0.6165351 1.2019686 0.822074
000070 ed f7 8a 3f 8b 0e 94 3f b2 3b 90 3f 97 f8 81 3f
       1.0856911 1.1566938 1.1268218 1.0153989

sequential/batch_normalization_1/FusedBatchNormV3_11 f4 [32]
000000 ec 05 90 bf 27 62 8d be c1 cb 1d bf a0 a5 0e bf
       -1.1251807 -0.27613947 -0.6163903 -0.55721474
000010 35 06 b3 bf aa 2d 8b bf 74 50 ad bf 52 51 9a bf
       -1.3986269 -1.087331 -1.3540177 -1.2056067
000020 f2 6c bb be 3a 07 b9 be aa 76 51 bf 06 e3 94 be
       -0.36606556 -0.36138326 -0.8182169 -0.29079455
000030 99 42 cd be 60 8e 4e bf 43 2d c5 be 16 1d 84 be
       -0.40089872 -0.80685997 -0.38511094 -0.2580344
000040 cf 09 b0 be ec d8 e2 bf fa 74 a2 bf 5a ea 9f be
       -0.34382483 -1.7722449 -1.2691948 -0.31233484
000050 bf 63 9e bf 62 d9 9a bf 62 5c ba bf 4a cc 3a bf
       -1.237419 -1.209759 -1.4559443 -0.7296797
000060 d4 63 95 be 79 54 1a be 80 25 03 bf 51 bd ae bf
       -0.29177725 -0.15071286 -0.51229095 -1.3651525
000070 bc e3 22 bf 00 06 a7 bf f4 23 35 bf 98 67 fa be
       -0.63628745 -1.3048706 -0.70757985 -0.4890716

sequential/dense/MatMul_1 f4 [128, 288]
000000 9b c7 8c be 1a fc 11 3e 77 f3 ce 3d 23 46 fa be
       -0.27496037 0.14256325 0.10105031 -0.48881635
000010 c4 b4 f1 3d 24 a2 4a be 73 71 75 be 1e a8 ba be
       0.118020564 -0.19788414 -0.23969059 -0.36456388
000020 d1 a6 a6 be 39 1c c4 be 7a 8a 0e 3e af d8 ef 3c
       -0.32549146 -0.38302782 0.13920012 0.029278127
000030 38 3d 7a 3d 86 16 4a 3e 5a 94 26 be 9d 70 98 be
       0.06109354 0.19735155 -0.16267529 -0.29773417
000040 31 fe 1c 3c f3 da aa 3d 02 82 dc bd a0 27 32 be
       0.009582088 0.083425425 -0.107669845 -0.17397928
000050 fa ae 4c be c4 92 a2 be 13 d9 16 be 15 8c c1 bd
       -0.19988623 -0.31752598 -0.14731245 -0.09450547
000060 2c 68 10 bc c9 ca 72 be 12 ff 7b be 54 02 96 be
       -0.008813899 -0.23710169 -0.2460902 -0.2929865
000070 ef 61 08 bf 76 6b 8a bd 60 99 8f be e5 c9 01 bf
       -0.53274435 -0.06758778 -0.28046703 -0.5069869
000080 42 0d 13 bc 6d a3 b6 3e c9 79 4f bd d9 df 0d bd
       -0.008975329 0.3567156 -0.050653253 -0.034637306
000090 b3 c3 a1 3d 12 b7 87 be 06 da 9d 3d f2 bf be be
       0.07898655 -0.2650686 0.077076 -0.37255818
0000a0 c8 66 04 bf b1 33 b4 be d6 5f c0 3d 4a b1 2d be
       -0.5171933 -0.35195687 0.09393279 -0.16962162
0000b0 77 3a 8b 3e e1 e9 a9 bb 2e a8 6e be 56 8b 31 bc
       0.27193043 -0.0051853512 -0.23306343 -0.010836443
0000c0 8e 90 77 be d1 ea f1 be 69 87 44 bd 9d b0 80 be
       -0.24176237 -0.47249463 -0.0479807 -0.25134745
0000d0 22 7a 35 3e 9c 1f 8f be 46 9e 12 3e 6e 1c 80 3d
       0.17722371 -0.27953804 0.14318189 0.062554225
0000e0 6e c8 83 3e 5a c5 4c 3d 57 b9 38 be af 2c ec bd
       0.25738853 0.049992897 -0.18039452 -0.1153196
0000f0 f8 10 16 3e a2 6f b2 3c ab b8 a2 3c b7 16 5d bd
       0.1465491 0.021781746 0.019863447 -0.05397674
000100 0c 8b a2 be b0 03 d4 bd 70 a5 a4 be 10 81 2d 3e
       -0.3174671 -0.10352266 -0.3215747 0.16943765
000110 09 85 48 3e ca d1 ae 3d bb ee 88 be b9 63 12 3e
       0.19581999 0.08536108 -0.26744637 0.14295854
000120 1d d6 a6 3d 4c e0 8a 3e b7 dd b5 3b 78 8a 79 be
       0.081463076 0.2712425 0.005550112 -0.24369228
000130 00 a4 99 be 15 20 93 bd c8 8e 12 3e 76 8a 10 be
       -0.30007935 -0.071838535 0.14312279 -0.14115319
000140 f8 be b7 be a0 df c2 bd f7 f4 08 3e ce 36 44 3d
       -0.35887885 -0.09515309 0.13374697 0.04790383
000150 b6 e6 1e 3e 41 2b 9b 3d 77 b4 97 3c e1 9b 0e 3e
       0.15517697 0.075766094 0.01851867 0.1392665
000160 61 ac 36 bd 1f 2a ac bc 32 02 0d 3e a4 52 d5 3d
       -0.044597987 -0.021016179 0.13770369 0.10416153
000170 b6 ab 73 be 21 1e 22 bc 0d 2c e6 3d a6 b4 de bd
       -0.23795971 -0.009894879 0.11238871 -0.108743
000180 b8 5f e1 bd 49 64 77 be 2f 71 11 3d 14 57 79 3d
       -0.11004585 -0.2415935 0.03550833 0.06087406
000190 e0 f2 81 bd 9d 78 04 be 11 b6 8d 3d c3 b8 8e bd
       -0.06345153 -0.12936635 0.06919492 -0.06968834
0001a0 c0 d3 0f be 7a 2c 35 3d a8 81 8a be 49 83 89 3d
       -0.1404562 0.04423187 -0.27052045 0.06714494
0001b0 7b 36 24 be 95 05 0a 3e 45 e4 49 be ff b9 ef 3c
       -0.16036408 0.13478692 -0.19715984 0.029263495
0001c0 6e 52 bf bd 35 84 95 be b6 21 9c 3d db b7 0a be
       -0.09341894 -0.29202428 0.07623617 -0.13546698
0001d0 df 7a 35 be 65 55 5a be c5 e8 1e be a2 83 a8 3d
       -0.17722653 -0.21321638 -0.15518482 0.08228232
0001e0 d0 32 d9 bd a0 51 f9 bd 65 72 c5 bd 20 5b a4 be
       -0.10605395 -0.12173772 -0.0964096 -0.32100773
0001f0 7f d7 bb be d2 54 4f 3e da a0 2b bd 5b fd 5b be
       -0.36687848 0.202472 -0.041901447 -0.21483366
000200 21 2a 15 3e 90 87 03 bd 8b 66 6b bc 52 c2 84 3d
       0.14566852 -0.032111704 -0.01436771 0.06482376
000210 51 79 74 be f4 cb 8d be b4 3d 93 bc c5 1a 33 bd
       -0.23874404 -0.27694666 -0.017973758 -0.0437267
000220 da 93 94 be 27 90 03 3e 0d 12 91 3d e3 4c 97 bd
       -0.29019052 0.12847959 0.07083521 -0.07387712
000230 c1 da 29 be 81 de 12 be c1 98 84 be 65 a4 11 be
       -0.16587354 -0.14342691 -0.25897792 -0.14222868
000240 70 45 30 bd 95 df 87 3e 1d bd df 3d 3c 5d 74 3e
       -0.04303497 0.26537767 0.10924742 0.23863691
000250 85 93 4c 3d f8 12 9c 3d e7 4b 94 be 2b fd fb bb
       0.049945373 0.076208055 -0.2896416 -0.007690092
000260 3a ff 96 bd 05 d0 5b bd e6 ca a3 bd c1 b2 e9 3c
       -0.07372899 -0.05366518 -0.07997684 0.02852762
000270 00 09 69 3c 99 7d bc 3d 6c 35 d8 3d 87 e9 d9 be
       0.014223337 0.09203643 0.105570644 -0.4256098
000280 b0 07 16 3e d8 6b fd 3d d4 3d 41 be 82 75 9e bc
       0.1465137 0.12374085 -0.18871242 -0.019343141
000290 28 de 6e 3d b7 01 f6 3d b9 f1 29 be b1 ea b0 3d
       0.058317333 0.12012046 -0.16596116 0.08638514
0002a0 bb 64 b7 bd 03 b4 52 bc 69 d5 de bd 36 cc 31 3e
       -0.0895476 -0.012860301 -0.108805485 0.17363057
0002b0 b2 88 ef bd 79 40 c5 bc 58 47 3d be fa 08 e9 bc
       -0.116959944 -0.024078595 -0.18484247 -0.028446663
0002c0 4d b1 e6 be ce 0f 58 3e 5e 52 fd 3d 3f 30 43 3d
       -0.45057145 0.21099779 0.12369226 0.047653433
0002d0 10 17 16 bc f8 e6 dd bd 4d 00 5e be d6 24 c2 be
       -0.009160772 -0.108350694 -0.21679802 -0.3791873
0002e0 c0 93 82 be 74 7c bd be a0 f3 04 be 7b ff ca bd
       -0.2550335 -0.37009013 -0.1298356 -0.0991201
0002f0 47 65 88 be 4a 37 d6 3c 88 58 bc 3c c7 f8 8f be
       -0.26639768 0.02614941 0.022991434 -0.2811949
000300 6d 87 92 bd d6 ce ca bd dc d3 30 bd 8b bf a8 bd
       -0.07154737 -0.09902732 -0.043170795 -0.08239659
000310 b0 7a a6 3d 60 f9 28 be 2b 05 79 be 59 fc 84 3d
       0.081288695 -0.16501379 -0.24318378 0.06493444
000320 e6 87 2f be e5 7e 78 be 36 6b bc bd 6f 0e 9c bc
       -0.17141685 -0.24267156 -0.09200136 -0.019049851
000330 6e 6a f2 bb 9c a0 1e be ea 05 57 be 25 6c 9e 3d
       -0.0073979413 -0.15490955 -0.2099835 0.07735471
000340 c8 35 63 be 40 aa bc be 2c 61 0a 3e 01 4a 33 be
       -0.22188485 -0.3684864 0.1351363 -0.17508699
000350 5f ae 59 3e a9 3e 87 3d 14 f2 2d 3e da 13 ed 3c
       0.21257924 0.06603748 0.16986877 0.02894013
000360 30 b2 fc 3c 8e 54 a8 3d c0 bf a8 3d 42 89 2e be
       0.030846685 0.082192525 0.082396984 -0.17044547
000370 33 1c aa be 4b a2 3b bd 89 74 04 3d 68 20 00 3e
       -0.3322464 -0.04580907 0.0323377 0.12512362
000380 ce 93 26 3e 73 94 52 be 3a 18 8e be 48 f6 03 3e
       0.1626732 -0.20564441 -0.27752858 0.12886918
000390 62 3d 9a 3d 74 7e 85 bd cc e8 ce bd e9 c8 a3 bd
       0.07531239 -0.0651826 -0.10102996 -0.07997305
0003a0 6f f8 3b 3e 8d 79 15 3e 17 50 7b 3c 09 1e 05 bd
       0.18356489 0.14597149 0.015338919 -0.032499347
0003b0 b0 30 a4 3e 70 7f 93 be 28 01 7a 3d 38 6f a5 bc
       0.32068396 -0.28808165 0.06103626 -0.020194635
0003c0 29 0b 69 3d 89 df 29 bd 83 16 71 be da 09 1b 3e
       0.05689541 -0.041472945 -0.23543744 0.15140477
0003d0 ad 94 44 bc 43 1f c6 bd 20 fe 2a bc 7f b0 b6 be
       -0.011998338 -0.096739314 -0.010436565 -0.3568153
0003e0 fa 40 38 be a6 88 97 3d 82 5b 9f bd d5 f9 c3 3e
       -0.17993537 0.073991105 -0.077811256 0.38276544
0003f0 41 4e e6 bd 87 e8 df 3d 9f e7 a9 bd fc eb 1d 3e
       -0.112453945 0.10933023 -0.08296131 0.15422052

sequential/conv2d_1/Conv2D_1 f4 [32, 2, 2, 16]
000000 55 42 54 3e f6 32 6c 3e e9 05 e6 3d 76 6c ad bd
       0.20728429 0.23066315 0.11231596 -0.08467953
000010 f2 db df 3c 7d de 7b bc 34 dc e5 3d db b7 2a be
       0.027326558 -0.01537287 0.11223641 -0.16671698
000020 9d 58 5d bd f1 ea 49 3b 2e 3a 2e 3e 68 35 3e bd
       -0.054039586 0.0030810202 0.17014381 -0.04643765
000030 9d df 24 bd 51 eb 60 3e 0f c9 70 bd e8 26 8d be
       -0.040252317 0.21964766 -0.058785494 -0.27568746
000040 53 c3 43 be d6 55 c4 3d a6 3c 7d be 98 5d b7 3d
       -0.19117479 0.095866844 -0.24730167 0.089533985
000050 8d 75 68 bd 87 0a 0e 3d 30 24 80 3c 10 33 1f be
       -0.05675273 0.03467801 0.015642256 -0.15546823
000060 82 08 e7 be e8 c7 59 bf 01 39 c2 be 4f 74 ad bb
       -0.45123678 -0.8507066 -0.37934116 -0.005293406
000070 72 25 cd be b2 1e 3c 3e b2 2d 3c be c0 87 70 be
       -0.4006763 0.18371084 -0.18376806 -0.23489285
000080 15 50 71 3d 27 b8 fc bd b1 fc 98 3e a2 b1 6c 3e
       0.058914263 -0.12339812 0.29880288 0.23114637
000090 ff 9e ac bd 08 15 04 3e 2e bb 85 bd c0 d8 ae bb
       -0.084287636 0.12898648 -0.06529842 -0.005335897
0000a0 d9 f8 f1 3d 36 0f c9 bb d3 c1 bf bd 77 59 44 3e
       0.11815042 -0.0061358465 -0.09363141 0.19174753
0000b0 ff 51 6d bc 28 29 e2 bd 07 d2 5c 3e c1 ef 28 3d
       -0.014484881 -0.11043006 0.21564494 0.041244272
0000c0 2f 75 91 be 9c e0 8a bc 80 88 ae bd 07 58 95 bd
       -0.28409716 -0.016952805 -0.08522129 -0.072921805
0000d0 98 e5 54 bd 34 f4 da bd 8f d8 5f be c4 e8 b2 3d
       -0.05197677 -0.10691109 -0.21859954 0.08735803
0000e0 03 de 20 bf dc 31 b4 be be 24 da be da 99 e9 bc
       -0.62838763 -0.3519429 -0.42606157 -0.028515745
0000f0 86 18 ae be 31 79 f4 bd f4 65 65 3e 0f 1d 21 3d
       -0.34003085 -0.11937178 0.22402173 0.039334353
000100 13 fc a1 be a5 88 8e 3e b8 10 73 be d6 74 57 3e
       -0.3163763 0.27838627 -0.23736846 0.21040663
000110 65 cd 0e 3c 94 e1 83 3e 41 6b 9a be ca a4 af 3e
       0.008715962 0.2575804 -0.30159953 0.34305412
000120 56 40 60 bd b1 2a 02 3d 8b 96 1b 3f d4 db 97 be
       -0.054748856 0.031778995 0.60776585 -0.29659903
000130 13 47 a2 3e 91 f4 42 3e 96 76 9e be c4 36 17 ba
       0.3169485 0.19038607 -0.3094985 -0.00057683536
000140 5e f4 05 bf e3 f0 1d 3e 20 2c a7 3c 51 d7 92 3d
       -0.52326 0.15423922 0.020406783 0.071699746
000150 e2 88 9c be bd a5 25 3e 08 11 47 be f6 60 a6 be
       -0.30573183 0.16176505 -0.1944009 -0.3249585
000160 43 bc 37 3a 66 ab dc 3d be 53 d9 3d 3d eb 84 bd
       0.0007008949 0.10774879 0.10611676 -0.06490181
000170 96 c1 90 3d 9e 65 62 3e 10 18 35 be 12 9e c6 bd
       0.070681736 0.22109076 -0.1768496 -0.09698118
000180 47 66 03 be 08 04 5b be 19 0f 5b bd f1 d8 64 bd
       -0.12831984 -0.21388257 -0.053481195 -0.055870954
000190 b1 75 ae be 27 b9 97 3e 10 2c 25 3e c5 18 ad 3d
       -0.34074166 0.29633448 0.1613009 0.0845199
0001a0 a5 92 93 3e cd db 86 3d 7a 7e 6e bd cc 4f 56 3d
       0.28822818 0.065848924 -0.058226086 0.052322194
0001b0 a6 e2 2b 3d b4 9c c0 bd 27 65 89 3e 7c 94 a8 be
       0.041964196 -0.09404889 0.26834986 -0.32925785
0001c0 f9 dd e8 bc 46 8c cf 3c bb 3f 35 bc 83 f9 a9 3d
       -0.028426157 0.025335442 -0.011062558 0.08299544
0001d0 97 c8 92 be bc 79 e6 3e 54 5d 21 be 95 88 94 ba
       -0.28668663 0.4501475 -0.15758258 -0.0011332209
0001e0 09 d1 c3 bd c7 5f 8d 3e 5e 1f a1 bd c6 cb 38 3d
       -0.09561355 0.27612135 -0.07867311 0.04511621
0001f0 4c c0 a0 bc 55 91 da bc 28 2c 9c bd c9 7b 3a bc
       -0.019622944 -0.026680628 -0.0762561 -0.011382052
000200 ce 84 7b bd 8b 14 b6 3d 53 f6 1f be 77 59 69 be
       -0.06140595 0.08890637 -0.15621309 -0.22788034
000210 b8 06 63 3d 73 40 23 3e 61 21 3a 3e 4f 5f 33 be
       0.05542633 0.15942554 0.18176796 -0.17516826
000220 fe d1 ee bd c6 30 3e 3e 24 b6 1a bd b6 33 82 3d
       -0.116611466 0.18573293 -0.03777136 0.06357519
000230 a5 8e cb be 1a 0d 05 be f4 f7 99 bd ac d3 14 be
       -0.39757267 -0.12993279 -0.075179964 -0.14533871
000240 46 75 40 bc f2 2e 06 3c 0e 9c ad 3e e9 a3 0a be
       -0.01174671 0.008189904 0.33908123 -0.1353909
000250 d0 39 9d 3d 1d 41 8d 3e bf cd 46 3e 9b 17 ea bd
       0.076770425 0.2758874 0.19414423 -0.11430284
000260 14 49 8a 3e 20 11 a5 3d fa 92 a6 bd 13 a8 7b 3e
       0.2700888 0.08059907 -0.08133502 0.24575834
000270 2b dd 33 3e 4f 85 c2 bc 69 09 74 3e 4b 34 95 3e
       0.17564838 -0.023745207 0.23831715 0.2914146
000280 16 36 05 bf e4 f4 a3 3d f0 7f cb be 26 2f 92 bc
       -0.52035654 0.080056936 -0.39746046 -0.017844748
000290 5e 12 35 be d2 59 3f 3d b7 76 f4 be 08 7d 48 be
       -0.17682788 0.04671652 -0.47746822 -0.19578946
0002a0 1d 49 8c bd 6d 4d 72 bd 4a 08 da bd 89 48 5e be
       -0.06849883 -0.05915587 -0.10646112 -0.21707357
0002b0 20 9d f9 bd 67 5d 6b 3a 7f 78 b7 be ad 2c a6 be
       -0.12188172 0.00089784566 -0.3583412 -0.3245596
0002c0 1f ca f7 3d 4a 07 09 3d 6b cd c7 be fb 7b f8 bc
       0.120990984 0.033454217 -0.3902391 -0.030332556
0002d0 e9 b9 1c 3e cf 19 fe 3e a5 ea 4a bf df 5c 2c 3d
       0.15305294 0.49629065 -0.7926429 0.042080756
0002e0 e7 46 42 be 7e b5 f7 bd 32 94 c3 3d e1 87 f0 3d
       -0.1897236 -0.12095164 0.095497504 0.11744667
0002f0 04 56 56 3c 69 48 14 bf 27 8a 44 be d8 63 f7 3d
       0.013082031 -0.5792299 -0.19193326 0.120795906
000300 b9 f5 14 be b2 73 04 3f 11 d7 69 3d bf 3d a5 bd
       -0.14546861 0.5173904 0.05708987 -0.08068418
000310 06 78 a6 3b d9 aa 28 be 67 dc 58 3e 37 d2 a3 3d
       0.005080226 -0.16471423 0.21177827 0.0799908
000320 f8 15 6b bd e9 69 24 be 20 16 49 3e 0d 57 ca be
       -0.057393998 -0.16056027 0.19637346 -0.3951954
000330 76 f5 28 bc 3a 97 f6 3e 7f 21 8e be 13 d7 f1 bd
       -0.010312429 0.48162252 -0.2775993 -0.118086
000340 31 be 6d 3d a4 ff 04 3e 72 68 71 be 5b 92 66 3e
       0.05804271 0.12988144 -0.23574999 0.22516768
000350 20 53 e1 bd c6 38 83 be c2 db 43 3e af 03 3c 3c
       -0.11002183 -0.25629252 0.191268 0.011475488
000360 f6 69 23 be 81 48 b9 3d 26 e9 98 be b9 d6 15 bc
       -0.1595839 0.09047032 -0.29865378 -0.009145432
000370 eb a1 29 3c f5 10 5e 3e c0 54 c4 3c 75 e3 4a 3c
       0.010353546 0.21686156 0.023966193 0.012383332
000380 d1 66 de bd 61 92 87 3e 90 ed f7 3c 8b d4 86 3d
       -0.108594544 0.26478866 0.030264646 0.06583508
000390 f3 8d 92 be 27 89 2c be f5 7f 83 bc 99 d5 7b be
       -0.28623924 -0.16849194 -0.016052226 -0.245932
0003a0 1e eb a4 bd 31 cf 94 3d 3d 5f 4d be ea e7 2f be
       -0.080526575 0.07266081 -0.20055862 -0.17178312
0003b0 1b 00 6c bc c2 64 36 3d 6e 6b d7 3d 5a 38 f7 be
       -0.014404322 0.044529684 0.105185375 -0.4828518
0003c0 30 bd f1 bd cd ec 43 3d b0 c6 3d bd 5e 08 83 3d
       -0.11803663 0.047833253 -0.04633206 0.0639808
0003d0 dd 20 15 bf f0 0b 8d be 04 0c 6d be 8e 8a bc be
       -0.5825327 -0.2754817 -0.23149115 -0.3682446
0003e0 a0 96 6c 3e 3d 6f 88 3e 73 21 84 be dc 74 75 3e
       0.23104334 0.26647368 -0.2580677 0.2397036
0003f0 fc 76 07 be 37 f2 b0 3d 51 b1 e8 3d bf 96 e0 3c
       -0.13228983 0.08639949 0.113619454 0.027415631

sequential/dense_1/MatMul_1;sequential/dense_1/Relu_1;sequential/dense_1/BiasAdd_1 f4 [64]
000000 f4 bb 36 40 88 3d dc 3e e0 b7 16 be 73 84 ec bf
       2.8552217 0.43015695 -0.1471858 -1.847792
000010 0f 57 35 40 e7 4a 00 bf 2b dc 6f 40 4c db 04 bf
       2.8334386 -0.5011429 3.747813 -0.5189712
000020 99 b6 98 be 6c 19 05 3f 84 3d 06 40 d0 ef 94 bf
       -0.2982681 0.51991916 2.0975046 -1.1635685
000030 3c 8a 18 3f 35 2a f6 3f d4 bc a7 bd 04 8e 4f 40
       0.5958593 1.923163 -0.08190313 3.243043
000040 dd 4e a5 bf 4c 93 14 c0 6c 3a 8e 40 b8 a7 b6 bd
       -1.2914692 -2.3214903 4.4446316 -0.089187086
000050 8e c1 da 3d 0a 74 d8 3e fd ea cb 3f 01 60 1a be
       0.10681449 0.4227603 1.5931088 -0.15075685
000060 5c 15 ca 3f 41 97 1e 3e 00 0f f8 3f 4c 44 30 40
       1.5787768 0.15487386 1.9379578 2.7541685
000070 38 1e c7 bf 59 71 16 40 7d fa 87 3f 92 b2 d0 3f
       -1.5556097 2.3506682 1.0623318 1.6304495
000080 0b 8c 33 3e 89 9b 2d 3d 89 76 d4 be ba 08 ab 3f
       0.17533891 0.042384658 -0.41496685 1.3362038
000090 ca 53 17 3f ed 0f 84 3f e3 8e 00 c0 49 35 4c 40
       0.59112227 1.031736 -2.008721 3.1907523
0000a0 3f 6f 05 40 80 b1 b8 3f 8c 40 1f 40 89 f3 5d 40
       2.084915 1.4429169 2.4883146 3.4679892
0000b0 e0 51 8a 3e 1d 7f a5 bf 68 65 4a 40 04 f2 0b 40
       0.2701559 -1.2929417 3.1624393 2.1866465
0000c0 1f 75 3a bf 3c 90 eb 3f c1 ac dd 3f e2 f2 e8 bc
       -0.7283496 1.8403392 1.7318345 -0.028436128
0000d0 e7 47 08 40 f3 a3 2a be 8f d6 c9 3f 4b 87 53 bf
       2.1293886 -0.16664104 1.5768603 -0.82628316
0000e0 9e 8d 3b bc c9 75 9c c0 0d 8a 25 40 51 2e 15 40
       -0.011447338 -4.889378 2.586551 2.330952
0000f0 20 c1 8b be c9 d6 08 40 8b 98 a9 bf f8 7c ca bf
       -0.2729578 2.1381094 -1.3249677 -1.5819387

sequential/batch_normalization_2/batchnorm_1/mul_1;sequential/batch_normalization_2/batchnorm_1/add_1;sequential/dense_1/MatMul_1;sequential/dense_1/Relu_1;sequential/dense_1/BiasAdd_1 f4 [64, 128]
000000 50 75 de 3d bf 43 c6 bd 23 d2 95 3d 2c a9 71 bc
       0.10862219 -0.0968089 0.07315471 -0.014749806
000010 18 c8 dd bb 6a 14 80 3d 53 0a 26 3c ee 15 6b bc
       -0.006768238 0.06253894 0.010134297 -0.01434849
000020 76 1c 9d bd b6 d5 23 bd ee 25 b8 3d 49 91 97 bd
       -0.07671444 -0.039998733 0.089916095 -0.07400758
000030 76 4c d3 bd 74 43 ed bc 94 85 89 bd 28 fd ce 3c
       -0.10317318 -0.028962828 -0.06714931 0.025267199
000040 4b 59 eb bb ef c9 17 3d e0 7d cd bc 79 aa 59 3d
       -0.0071822754 0.037057813 -0.025084436 0.05314109
000050 37 d3 9d 3c c8 54 a9 bc 87 b7 b4 3b c7 e5 16 bd
       0.019265754 -0.02067031 0.005515042 -0.036840227
000060 8d 53 0f bd b2 9e a8 3d 6a 6c f3 bc fe 76 5d bd
       -0.03499179 0.08233394 -0.029714782 -0.054068558
000070 0b da 8c bd 07 aa c3 bc c2 01 a8 b9 7f c0 c1 bc
       -0.06877526 -0.023884786 -0.00032044767 -0.02365136
000080 3e 42 2b 3d 75 e8 4a bd 37 75 da bd ad fb 21 3d
       0.04181122 -0.049538095 -0.10666888 0.039546657
000090 36 ca 3b bd a7 f1 96 bc a0 fa 6f 3d 13 ce 8a 3c
       -0.04584714 -0.018425776 0.058588624 0.016943967
0000a0 2b ea ca 3b b9 fc c5 3d e4 72 eb bd f0 e7 77 3c
       0.006192466 0.09667344 -0.11496523 0.015130982
0000b0 d1 07 c1 bd 83 c1 12 3c 8a aa 6e bb 47 6d c4 bd
       -0.09425319 0.00895727 -0.0036417567 -0.095911555
0000c0 5d 30 7f bc 61 ea cd bd b8 c1 41 3d 61 03 42 bd
       -0.015575496 -0.1005447 0.047303885 -0.047366504
0000d0 50 6a 63 bc c2 8a b8 bc 4d 43 00 bb 7c fc d0 3c
       -0.013880327 -0.022527102 -0.0019571364 0.025511019
0000e0 c5 49 04 3c d7 7b 48 bc 6a 3e 3c bd b2 a2 83 3c
       0.008074229 -0.012236557 -0.04595796 0.01606879
0000f0 48 35 3c bd 3b da e9 3c ee 8a 13 3e 88 19 cc bc
       -0.04594925 0.028546443 0.14408466 -0.024914518
000100 5f 51 12 be 86 52 17 bd 22 1d 1e 3d 52 8c 8c ba
       -0.14288853 -0.036943935 0.038602002 -0.0010722971
000110 34 4c ef bd b9 44 e6 bb ce d7 56 bc 30 dd 4c 3b
       -0.116844565 -0.0070272353 -0.013112975 0.0031259768
000120 e9 c5 9b 3d 08 74 e2 bd f4 4b 9b bd 30 4d 32 3d
       0.07606108 -0.110572875 -0.07582846 0.043530643
000130 86 82 8e bc f1 af f3 3d 87 a3 59 3e 8a 46 76 bd
       -0.017396223 0.118987925 0.21253787 -0.060125865
000140 2d 9a aa 3a 5c b7 70 3c 9b a0 fb 3a 89 3f fd 3c
       0.0013015919 0.014692154 0.0019197644 0.030914085
000150 a3 f8 9b 3d ba 5f 03 3c 1b 8e 44 be f7 2b 0d be
       0.07615783 0.008018428 -0.19194834 -0.13786303
000160 2a 5e 90 bd ee d4 91 3d 3a 76 95 bc 89 27 22 3c
       -0.0704921 0.07120691 -0.018244851 0.009897121
000170 7b 6c b0 3c ee bb d5 bd 20 7e a6 3d cc a1 03 bd
       0.021536103 -0.10436235 0.08129525 -0.032136723
000180 11 83 04 3d 35 96 32 3c c0 83 5c 3d e9 e9 ba bc
       0.032351557 0.01090007 0.053836584 -0.022816615
000190 f8 6d 97 bc e6 b6 9a 3d e5 bf ab bd 87 81 09 bc
       -0.018485054 0.07554416 -0.0838621 -0.008392698
0001a0 59 5a 95 3d c1 58 3c 3e 3e ff de 3d 95 77 99 bd
       0.07292623 0.18393232 0.10888527 -0.074935116
0001b0 e3 46 6b 3d 67 ab 8b 3c 79 7f 68 bd ea d8 0e 3d
       0.05744065 0.017049504 -0.056762192 0.034874834
0001c0 25 d0 ca 3c 44 05 31 3d a5 69 a9 3c be 2d 8f 3d
       0.024757454 0.043217912 0.020680258 0.069911465
0001d0 35 18 9e 3d b1 c6 bb bd 36 4b 76 3d 09 2d 8e bc
       0.07719461 -0.09168757 0.06013032 -0.017355459
0001e0 fa 75 8c bd 4e 6c 09 3e 66 03 a7 bd 64 96 03 bd
       -0.0685844 0.13420221 -0.08154945 -0.032125846
0001f0 08 cc be 3c 65 00 e1 3c 35 a9 f1 bc 73 c6 18 3d
       0.023290649 0.027466008 -0.02949963 0.03729863
000200 f3 69 d6 bc 19 5f 47 bd 0b 99 ee 3c dc 99 c1 bc
       -0.026173567 -0.048674677 0.029125711 -0.023632936
000210 0b d3 0d 3d e8 6b 0a 3d 65 95 43 3c 50 9e d2 3d
       0.034625094 0.033794314 0.011937474 0.10284102
000220 81 72 f9 bd de 66 06 3e 41 a3 b1 3d d7 1a 92 bc
       -0.12180043 0.13125178 0.08673716 -0.017835064
000230 17 5b ba 3a 1b fe 52 bd a0 9d 06 3c fd 5c d2 bb
       0.0014217821 -0.051511865 0.008216292 -0.0064197765
000240 34 d6 08 3e 2a 4b 64 3d a7 1c bf 3b b4 7f 96 3d
       0.13362962 0.055735745 0.005832273 0.07348576
000250 64 b7 0a 3d 85 28 46 3d bd e8 3c 3c de 55 a8 bc
       0.0338663 0.048378486 0.0115300985 -0.020548757
000260 4a 23 bf 3b cc c8 70 bd a2 2f 8e 3c e2 3f 58 3d
       0.005833064 -0.058785245 0.017356697 0.0527953
000270 e5 ee fb bc 36 00 d8 bd f9 b3 53 3c 0c 64 a9 bc
       -0.030753562 -0.10546915 0.012921327 -0.020677589
000280 46 07 42 bd 9b d9 f8 bc 03 fb c4 bd d9 a8 23 bd
       -0.047370218 -0.0303772 -0.09618189 -0.039955948
000290 d6 ab a4 bd 47 4c 54 3c a9 ae 72 bc fe 23 2f bc
       -0.080405876 0.012957639 -0.01481215 -0.010689734
0002a0 d7 f6 65 bd 5c c8 29 3d f0 7a c1 bc ad 5b a0 bd
       -0.056143608 0.041450843 -0.023618191 -0.07829986
0002b0 d5 c3 ae 3d 15 b9 f1 bc 31 49 67 3d 66 fd 22 3e
       0.08533446 -0.0295072 0.056466285 0.15916976
0002c0 8f 11 1f 3c 9d e9 ef bb da 9f 33 3e a8 e6 34 3d
       0.009708776 -0.00732155 0.17541447 0.044165283
0002d0 aa 89 8c bd cd ec 7a 3b 21 2b af 3c 8f 77 00 bc
       -0.06862195 0.0038288117 0.02138287 -0.007841005
0002e0 70 0b 9b bc bb 0e e3 bb 67 2a 85 bd 83 7c 76 3c
       -0.018926352 -0.0069292462 -0.06502228 0.015044334
0002f0 14 d6 8d bd e7 44 dc 3c 30 b6 d2 3d af a4 92 bc
       -0.06925598 0.026888324 0.10288656 -0.017900793
000300 c2 82 0b be c8 7b 26 bd 04 85 3e 3d 33 93 d0 bb
       -0.13624099 -0.04064539 0.046513572 -0.0063652038
000310 21 7c af bd 1d cb c5 bc 23 0e 8b 3d ad c4 6d 3c
       -0.085685976 -0.024144704 0.06789806 0.014512223
000320 2e 95 e5 bc ce 19 6b bd e9 38 70 3b e0 18 f3 3d
       -0.028025236 -0.057397656 0.0036655015 0.11869979
000330 4b 59 ae bd ad 97 ae 3d 84 28 dd 3b f1 b0 44 b9
       -0.08513125 0.085250236 0.0067492146 -0.00018757932
000340 93 3f bb bc 0e 5a 93 bd ba 32 42 bd 16 b8 06 3d
       -0.022857463 -0.07194911 -0.047411658 0.0328904
000350 1e 5b 4c 3d 3f 5d e6 3d b1 be 80 3c 00 18 ae 3d
       0.049891584 0.11248254 0.015715929 0.085006714
000360 80 82 1f 3d b0 01 b6 bd 52 18 0b 3e 62 45 3c bd
       0.038942814 -0.088870406 0.13583496 -0.045964606
000370 5b e2 93 3c f7 d0 cb bd bf fe 3d 3d 16 da 63 bb
       0.01805227 -0.09951966 0.046385523 -0.003476744
000380 35 bd 0f 3d b0 9b 50 3d 9c af a2 3c 00 5c 93 bc
       0.03509255 0.050929725 0.019859128 -0.017988205
000390 cb 85 85 bd 86 aa a7 bc 45 b1 c3 bc c3 2a ed bc
       -0.065196596 -0.020467054 -0.02388824 -0.028951054
0003a0 e5 0b ad 3c bc f4 d1 3d 24 6d 24 3e d9 53 8e 3c
       0.021123836 0.102517575 0.16057259 0.017373966
0003b0 0b 01 0b 3c c2 9a b2 3d 98 71 f0 bc c8 9f 95 3c
       0.008484135 0.08720924 -0.02935104 0.018264666
0003c0 fe 07 80 3b 26 fa 94 3c 44 7d 22 bd 47 98 9b 3d
       0.0039072027 0.018185686 -0.039670244 0.07597404
0003d0 da 0b 92 bd a1 83 e1 bd 1c ca 63 3c 4c 73 4d 3d
       -0.07131167 -0.11011434 0.013903167 0.050158784
0003e0 4d 7b 49 3d ae cd c0 3c 2e 18 5e 3a 8b 5b 24 bd
       0.049189854 0.023535576 0.0008472231 -0.040126365
0003f0 d6 17 d0 bd 51 a8 ec bc 54 5d e3 3d bd ad be bd
       -0.10160796 -0.028888853 0.11101785 -0.09310482

sequential/dense_2/MatMul_1;sequential/dense_2/BiasAdd_1 f4 [10]
000000 6c b9 8e 3f 43 49 42 3f a9 d7 22 3f 0a 31 9f be
       1.1150336 0.7589304 0.6361032 -0.310921
000010 84 44 b8 3f fc 89 c6 3d d2 ba ed bd 67 cd a7 be
       1.4395909 0.09694287 -0.11607899 -0.32773897
000020 50 85 99 3f 02 a5 61 3f
       1.1993809 0.88142407

sequential/batch_normalization_3/batchnorm_1/mul_1;sequential/batch_normalization_3/batchnorm_1/add_1;sequential/dense_2/MatMul_1;sequential/dense_2/BiasAdd_1 f4 [10, 64]
000000 da 19 22 bd 8f 50 19 3e a3 df 40 3e 9b c7 07 3e
       -0.039575435 0.14972137 0.1883531 0.13259737
000010 89 8e 04 3e 99 7a bc 3c 59 00 a1 bd 09 14 3a 3d
       0.12944998 0.023007678 -0.078613944 0.045429263
000020 f8 55 9d be 4d 11 bc 3d 4a 99 08 3d 14 51 00 3d
       -0.3072965 0.09182987 0.033349313 0.031327322
000030 00 5d 91 bc 4e c2 44 bd 61 07 04 3e 50 2e f0 3d
       -0.017744541 -0.048036866 0.1289344 0.117275834
000040 e1 77 27 be 0c 70 f1 3d b8 c7 0e be e3 63 9a 3d
       -0.16354324 0.11788949 -0.13943374 0.07538583
000050 32 7c 99 3c 20 0d bd 3b 0c d6 4e be be 8b 2a 3e
       0.018735979 0.005769387 -0.2019884 0.1665487
000060 20 cc 72 be f6 a4 19 bd cc 34 2e 3e 0f cc 8c be
       -0.2371068 -0.037510835 0.17012328 -0.27499434
000070 89 6b 04 3b 87 ee 36 bd d2 01 99 bb 46 82 09 3e
       0.0020205698 -0.04466107 -0.0046694065 0.13428602
000080 5f f2 a5 bc 99 2b 48 be 84 5b 3b be 4b bc 3b be
       -0.020257173 -0.19547881 -0.18296629 -0.18333547
000090 81 24 c8 3b cb db 87 3d 1a 54 cb 3b 5a 48 3d 3d
       0.006107867 0.06633719 0.006205094 0.046211578
0000a0 99 af 6d be 8c e4 82 be 95 51 e7 3c 73 fe e9 bc
       -0.23211516 -0.25564992 0.028237144 -0.028563714
0000b0 0e d8 b5 bd 26 1d 97 bd cb 11 ac 3d 23 5d de bc
       -0.088791 -0.073786065 0.08401831 -0.02714402
0000c0 35 ee ff bd ae a9 e3 bd 5f d5 59 bd 9f 8e 44 be
       -0.12496606 -0.11116348 -0.053182002 -0.1919503
0000d0 9a ab 85 3d 31 66 6e bd 3b 06 5b bd 1d 13 9f bd
       0.06526871 -0.058202926 -0.05347274 -0.077673174
0000e0 f1 aa e6 bd 9a 2e 92 bd e0 b8 04 3c 7d 6f 57 bd
       -0.11263073 -0.07137795 0.008100718 -0.052596558
0000f0 d0 23 8b 3d d9 b5 b9 bc 82 72 7c bd 69 a7 01 bd
       0.0679394 -0.02266972 -0.06163264 -0.031653795
000100 be a0 b5 3d 90 98 f8 bc 73 df 80 3e ff 8c 34 bd
       0.0886855 -0.030346185 0.25170478 -0.044079777
000110 09 6e ac 3c 97 0a df bd 06 15 24 be 8c ac bf bc
       0.021048563 -0.10890692 -0.16023645 -0.023397706
000120 cc 9f 19 3e da ba ca bd e1 56 bd 3d 9e 38 75 bc
       0.15002364 -0.0989892 0.092450865 -0.014967112
000130 87 ae 25 bd 4d 62 47 be 34 74 03 3c bb cf ff bd
       -0.040449645 -0.19471093 0.00802331 -0.12490793
000140 11 57 77 3d 00 5b c3 3d 1a e4 c6 3d b5 af 5b be
       0.060385767 0.09538841 0.09711476 -0.21453746
000150 00 08 c3 bd c2 bf 6b be ba f2 aa bd 6f 6c 20 be
       -0.0952301 -0.23022369 -0.08347078 -0.15666364
000160 de a7 0c be 4a 5a d1 3d c6 5b 41 bd ce b9 37 3e
       -0.13735911 0.102222994 -0.047206663 0.17941973
000170 1d 36 a3 3c cb 56 b8 3d a3 61 08 3e e3 d1 cb 3d
       0.019923264 0.090009294 0.13318495 0.09952142
000180 17 e9 ec bd 58 c2 5c be b8 85 32 bd c2 9c 75 bd
       -0.11567896 -0.21558511 -0.043584555 -0.05996395
000190 05 0b 12 ba dd f8 d7 3d a2 4b 8d be 89 f0 22 3e
       -0.00055711 0.10545514 -0.27596766 0.1591207
0001a0 c6 95 dd 3d af bb 61 3d 22 d9 33 3e c0 3e ad 3d
       0.10819583 0.05511063 0.17563298 0.08459234
0001b0 c3 dd 10 3d ce 86 20 be db 7e 51 be 86 61 4f 3c
       0.03536774 -0.15676424 -0.20458548 0.012657529
0001c0 da 99 dd bb cf 85 c2 3c 9d ed 28 3e d6 27 b6 3d
       -0.0067627253 0.023745446 0.16496892 0.08894317
0001d0 62 fe 86 be a3 59 56 3d 95 9c ec 3b 43 ec 93 be
       -0.26365954 0.052331578 0.0072208145 -0.2889119
0001e0 be 59 cc 3d ac d9 2b bd 66 40 9c bd c2 e9 72 3d
       0.099780545 -0.041955635 -0.076294705 0.05930496
0001f0 7c be 12 be 3b 5d 22 bb 07 c6 68 bc bb 0e 27 be
       -0.14330477 -0.0024774808 -0.01420737 -0.16314213
000200 b9 ec a8 bd df 0e 9c bd c3 c2 b3 3d 4b 92 05 3e
       -0.08248276 -0.07620024 0.08777382 0.13044088
000210 93 d9 8a 3d 36 64 0f 3e 7b f8 b0 3d e2 97 2f bd
       0.0677978 0.14003071 0.08641144 -0.042869456
000220 0b b1 c1 3c 68 ba 71 bc 0c 65 0f be ce 20 be 3d
       0.023643991 -0.014753915 -0.1400339 0.09283601
000230 ed cb 4b be 8d 7e ab 3d a8 d7 e1 3d 41 20 bf bd
       -0.1990201 0.08373747 0.11027461 -0.09332324
000240 de 41 a3 bc 58 e0 94 3c 72 89 b6 39 1d bb f8 3d
       -0.019928869 0.018173382 0.0003481615 0.12145064
000250 52 e6 c9 3d a2 8c 69 be b6 7c 0b 3e ed 6f 8d 3c
       0.09858383 -0.22807553 0.13621792 0.017265284
000260 9d 39 9e be 3e ed 41 bd 7b 6b ce bc d4 0c 86 bd
       -0.3090333 -0.047345392 -0.025197735 -0.065454155
000270 5e 78 78 bd b2 47 38 be 51 15 40 bd a2 85 4f 3c
       -0.060661666 -0.179961 -0.04689533 0.012666138
000280 ed d9 58 bd 84 4b 7b 3d 3a 6b 9a bd 80 07 8e 3d
       -0.052942205 0.061351314 -0.07539983 0.06935024
000290 7f 82 7d bd 6c f4 14 be b2 dd b5 3d 0b 3a 09 3e
       -0.06189203 -0.14546365 0.08880176 0.13401048
0002a0 08 93 3f be a9 47 06 3e a7 cb 8f bd 08 01 ab 3d
       -0.18708432 0.13113274 -0.070212655 0.08349806
0002b0 49 10 41 bc 97 37 df 3d 6c 8d b1 3d 14 e4 4a be
       -0.011783668 0.10899275 0.08669552 -0.19813567
0002c0 59 0f 24 bd 18 e7 b7 bd 7b 42 17 be ae dd f3 3d
       -0.0400537 -0.089796245 -0.14771454 0.119075164
0002d0 19 0e b8 bd b1 72 a0 3d 52 1f ba bc 13 d6 1d bb
       -0.08987064 0.07834376 -0.022720013 -0.0024083897
0002e0 62 6a 29 3e 47 d4 2b 3e d7 64 57 3b c0 c0 c9 bc
       0.16544488 0.16780196 0.0032866502 -0.024628043
0002f0 17 f0 ea bd 43 53 eb 3d 30 1a 6c bd a1 98 b1 3d
       -0.11471575 0.1149049 -0.05764216 0.0867169
000300 d6 8e a6 bd f5 c1 fc 3d 8e c9 74 bd 4c ef 9d 3d
       -0.081327125 0.12341682 -0.05976253 0.07711658
000310 88 12 c4 3c 0e a1 5e 3d c5 c9 12 3e 44 27 4c be
       0.023934618 0.054352812 0.14334781 -0.19936854
000320 1f 27 b7 3d 31 f5 d4 3b 42 4b 20 be 75 a8 b6 bc
       0.08943009 0.0064989557 -0.15653709 -0.022297123
000330 9c bc bf 3d 21 11 bc bd 52 cc 06 be fd ad 88 bd
       0.09362146 -0.091829546 -0.1316388 -0.06673811
000340 48 c3 98 bc 9c e6 8c bd 70 c8 95 bc 7d 37 a7 bd
       -0.018647805 -0.06879923 -0.018284053 -0.081648804
000350 e2 90 29 be 57 72 9c bd fd ce 7a 3c 3e fd e6 3d
       -0.16559175 -0.07638996 0.015308139 0.11278771
000360 85 25 07 3e 87 68 2d 3e 3a a1 8d 3d d5 bb 32 3c
       0.13197906 0.16934405 0.06915517 0.01090904
000370 82 98 00 bd 5a c7 b2 bd 20 df ef 3c f0 3d 08 be
       -0.031395443 -0.087294295 0.029281199 -0.13304877
000380 ad 9f 88 3d 0a d5 63 3d 2e 55 ac bd 69 0b 55 3d
       0.06671081 0.05562309 -0.08414684 0.052012835
000390 7c 58 4c be fe a0 a7 3c c9 ea 6c 3d 60 9e 4b 3e
       -0.19955629 0.02046251 0.057841096 0.19884634
0003a0 c2 20 09 3d b4 97 85 bd 67 e1 20 3d 1c bd 2b 3d
       0.033478506 -0.06523076 0.03927746 0.041928396
0003b0 80 49 e1 bd b9 cb 5c 3d 9c 0d 58 3d 2f c2 6a be
       -0.11000347 0.053905223 0.052747354 -0.22925638
0003c0 ac 6f 11 bc e9 0d 00 3e c9 1c 00 3d d4 7a f8 3d
       -0.008876722 0.12505306 0.03127745 0.121328026
0003d0 9e 47 7a 3d 52 df 69 3c 3e f7 aa 3d 93 be f8 3d
       0.061103456 0.014274435 0.08347939 0.12145724
0003e0 9a 10 cf bd 75 ba 26 bd 7a 9e 94 bd 57 23 ac bb
       -0.10110588 -0.040705163 -0.072567895 -0.0052532363
0003f0 19 80 87 bd 51 a7 eb 3d ec 91 b1 3c b1 ca 11 3e
       -0.066162296 0.115065224 0.021676026 0.14237477

sequential/conv2d/Relu_1;sequential/conv2d/BiasAdd_1;sequential/conv2d/Conv2D_1;conv2d/bias f4 [16, 2, 2, 1]
000000 fc 59 d8 bb 15 86 01 bb fc fd 12 b9 4c fe 3c 3a
       -0.006602524 -0.0019763757 -0.00014018262 0.0007209524
000010 c2 2a 95 ba 28 a6 88 39 ef 00 7c 3a da 03 a4 ba
       -0.0011380541 0.00026063737 0.0009613176 -0.0012513355
000020 8a 69 8b b5 f7 15 5f 33 5a d2 1e 3b 0b d8 5b 3a
       -1.0387023e-06 5.194121e-08 0.0024234266 0.000838638
000030 f4 0d 7c 3a 69 70 83 ba 98 71 53 3a 0a 24 63 b9
       0.0009615116 -0.0010028008 0.0008065938 -0.00021661833
000040 ec 5b d1 39 f3 eb 44 b7 48 2a a4 bb f5 5e a4 bb
       0.00039932074 -1.1737447e-05 -0.005009923 -0.0050162026
000050 1b c4 f0 b9 90 cf be b8 3f 0e d9 b9 63 87 7c ba
       -0.00045922477 -9.0985675e-05 -0.0004140008 -0.00096332113
000060 22 e6 96 ba 91 6a 31 ba cb 9e 31 3a 6e f6 58 3a
       -0.0011512677 -0.0006767894 0.0006775676 0.0008276467
000070 cd 62 8f 3a a7 c5 40 39 91 6c 8b ba 86 71 d0 b9
       0.0010939479 0.00018384178 -0.0010637214 -0.00039757433
000080 4b be 71 b9 ee ad 9c 39 99 82 c0 39 7a 98 25 3b
       -0.0002305444 0.00029884226 0.00036718397 0.0025267885
000090 02 c3 be ba 95 f3 94 3a 20 dd 87 ba 34 df 96 3a
       -0.0014553966 0.0011364097 -0.0010365583 0.0011510612
0000a0 ac e5 b9 39 3a 4c bb 3a 98 84 a6 ba 7c d4 09 ba
       0.0003545707 0.0014289685 -0.0012704311 -0.0005257798
0000b0 c5 94 ab 3a 52 33 80 ba e8 e3 28 ba ea 7d fe ba
       0.0013090601 -0.000978092 -0.0006442652 -0.0019416187
0000c0 39 95 8e 3a 81 5c ec 3a ee 40 27 ba 36 de 10 3a
       0.0010878212 0.0018032939 -0.000638022 0.0005526276
0000d0 74 db 9e b8 81 8c a5 ba da 0e 8d 3a da b4 56 39
       -7.5749034e-05 -0.0012630374 0.0010761872 0.00020476003
0000e0 d6 cb 8b 3a dd a5 ec b6 77 4a 18 3a fd 36 a9 ba
       0.0010665606 -7.052657e-06 0.0005809436 -0.0012910065
0000f0 9c 0c 60 3a a2 85 ff ba fb a2 07 bb 16 9b 1a 39
       0.0008546801 -0.0019494782 -0.002069651 0.00014744358
